model:
  name: ConvLSTM
  id: ConvLSTM_carbon
data:
  path: dk_dk2_clean.csv
params:
  epochs: 50
  learning_rate: 0.0001
  batch_size: 64
  n_feature: 50
  n_future: 24
  n_past: 168
  n_predict: 1

==========================================================================================
Layer (type:depth-idx)                   Output Shape              Param #
==========================================================================================
MODEL                                    [64, 24, 1]               --
├─Sequential: 1-1                        [64, 128, 83]             --
│    └─Conv1d: 2-1                       [64, 64, 167]             6,464
│    └─Dropout: 2-2                      [64, 64, 167]             --
│    └─ReLU: 2-3                         [64, 64, 167]             --
│    └─Conv1d: 2-4                       [64, 128, 166]            16,512
│    └─Dropout: 2-5                      [64, 128, 166]            --
│    └─ReLU: 2-6                         [64, 128, 166]            --
│    └─MaxPool1d: 2-7                    [64, 128, 83]             --
├─LSTM: 1-2                              [64, 83, 100]             92,000
├─Flatten: 1-3                           [64, 8300]                --
├─Linear: 1-4                            [64, 24]                  199,224
==========================================================================================
Total params: 314,200
Trainable params: 314,200
Non-trainable params: 0
Total mult-adds (M): 745.97
==========================================================================================
Input size (MB): 2.15
Forward/backward pass size (MB): 20.61
Params size (MB): 1.26
Estimated Total Size (MB): 24.02
==========================================================================================
…
